backend/data (3).pth (torch, 22207 bytes, 6 tensors)

l1.weight f4 [8, 327]
0.54287213 1.056246 1.7040284 -0.1604563 1.0643176 1.7955618 -0.32249373 1.3504785
0.28112155 0.1057861 -0.44285184 0.23208092 0.3203924 0.39186233 1.0864851 0.6357165
1.270195 0.23445337 0.3276749 -0.5423092 0.023493594 0.7487571 0.94062036 1.5795604
-1.5340383 0.80513877 0.41062096 0.39653677 0.31697294 1.0784035 0.03629802 0.17918853
0.637288 0.27733424 0.38723072 1.0379472 1.3764547 0.94149166 0.23000047 1.2319821
1.0318525 -0.17461808 0.7231625 0.5980094 -0.51826745 0.23574366 -0.19027849 0.14099547
1.0886964 0.49890333 1.0172899 1.2660825 -0.7501096 0.48073387 -0.66761976 -0.48212227
-0.81800604 1.7933438 0.37540585 1.0624751 1.3061961 -0.49044657 -1.5427612 0.49751407
0.076197475 1.3230202 0.51590514 0.093088605 -0.45630014 0.4360264 0.5823766 -0.33214837
0.9001173 -0.5116108 0.9265904 -0.62979215 0.78579533 -0.22147459 1.2060711 0.22829534
-0.2896071 0.7026093 -0.36312568 0.28180784 -0.35660478 1.2734553 1.2615073 -0.46529824
1.105172 -0.06722355 0.5639605 1.301884 -0.62567735 1.3515679 0.52909553 0.43670592
-0.6859497 0.11242806 -0.011832587 1.0203005 0.63520527 0.84305054 -0.02818328 0.13683355
-0.047518495 -0.034443196 1.9365755 0.757585 -0.8202632 1.0119084 1.4242076 -0.92417765
0.26699415 0.33461797 1.1637076 -1.5727352 -0.05768785 -0.1801529 -0.053893648 0.84339035
0.6217321 1.649614 0.56784195 -0.30828506 0.41428182 1.1849034 0.18892132 0.32758018
-0.6631483 0.37893727 0.14406425 0.28713208 0.88862044 0.2646699 0.6896202 0.77203095
0.06410389 0.85185057 1.7363101 0.9138977 0.952349 0.6483806 0.67338306 -0.29122823
0.2997084 -0.06425673 0.63950515 -0.38042688 0.97176003 1.0045633 0.32405972 0.28219977
-0.343136 -0.32564196 0.7754762 0.64011997 -0.069265805 -0.6591599 1.1019135 0.2431098
-0.12228153 0.62167627 0.8172943 0.3817362 0.4673789 -0.5881463 0.36731344 0.8551039
0.25033137 0.7091323 1.24517 0.86406946 0.2739431 -0.1971258 0.0394022 0.77356917
0.763188 -0.4842531 0.9476588 0.32969874 1.1719742 1.3356141 0.24970022 -0.54694015
1.0936636 -0.63313544 1.0419466 0.4796702 0.45565787 0.9769969 1.6061516 -0.23611586
1.1024257 1.0761366 1.2711222 0.39425695 -0.157404 -0.08712008 0.66324556 0.055260018
2.3339846 0.8142167 0.2279946 -0.80092597 -0.7907511 -0.42172837 0.35646433 0.6237569
0.8227058 -0.77328765 -1.0128586 1.2533866 0.04010938 0.26520395 0.38896874 0.27285576
-0.43813294 0.4741784 1.1671785 1.2232279 0.10005755 1.4020469 -0.514096 0.3675834
-0.20546618 0.21448359 0.20331144 1.0553826 -0.3357523 -0.3209176 0.35442722 0.19651014
-0.45379052 0.82227147 0.5324496 0.9529129 0.7272539 1.048265 0.5871699 0.7578438
0.6900367 0.8861766 -0.49892017 0.67799306 0.4596967 0.10474639 1.0116258 0.70519596
1.155009 -0.09236446 0.373427 1.8837976 0.7621717 0.2708667 -0.050965898 0.32966954
00000000: abf9 0a3f 1233 873f 9a1d da3f a84e 24be
00000010: 8f3b 883f f8d4 e53f e61d a5be 7bdc ac3f
00000020: 2aef 8f3e 62a6 d83d 7abd e2be 9fa6 6d3e
00000030: 790a a43e 2ea2 c83e f211 8b3f 51be 223f
00000040: c095 a23f 8b14 703e 01c5 a73e c7d4 0abf
00000050: a375 c03c 8cae 3f3f 7fcc 703f 092f ca3f
00000060: 5e5b c4bf 931d 4e3f e93c d23e de06 cb3e
00000070: 474a a23e 2009 8a3f 3cad 143d 337d 373e
00000080: 4e25 233f c1fe 8d3e 1b43 c63e 74db 843f
00000090: ab2f b03f 9905 713f 3e85 6b3e 97b1 9d3f
000000a0: be13 843f 15cf 32be 2d21 393f 2517 193f
000000b0: 2dad 04bf c966 713e 5dd8 42be 1e61 103e
000000c0: 675a 8b3f 4270 ff3e 8e36 823f fe0e a23f
000000d0: 2f07 40bf c022 f63e 21e9 2abf bbd8 f6be
000000e0: d868 51bf 4a8c e53f 3235 c03e 2fff 873f
000000f0: 6f31 a73f d01b fbbe 3379 c5bf 2aba fe3e
00000100: 6c0d 9c3d ba58 a93f 5c12 043f 3da5 be3d
00000110: 2ca0 e9be da3e df3e a216 153f 5a0f aabe
00000120: 166e 663f edf8 02bf 0735 6d3f 0f3a 21bf
00000130: e229 493f 3cca 62be 8a60 9a3f 41c6 693e
00000140: 6247 94be 34de 333f 9ceb b9be 1e49 903e
00000150: e794 b6be 9500 a33f 1279 a13f 923b eebe
00000160: 4776 8d3f 80ac 89bd b75f 103f 23a4 a63f
00000170: 642c 20bf 2d00 ad3f ce72 073f eb97 df3e
00000180: 669a 2fbf af40 e63d 78dd 41bc 3599 823f
00000190: d09c 223f 29d2 573f 9fe0 e6bc 181e 0c3e
000001a0: c1a2 42bd 4f14 0dbd b5e1 f73f 17f1 413f
000001b0: c5fc 51bf 3786 813f 6f4c b63f e896 6cbf
000001c0: 75b3 883e 0c53 ab3e 5ff4 943f 634f c9bf
000001d0: 184a 6cbd 007a 38be 96bf 5cbd 6ee8 573f
000001e0: d629 1f3f 8d26 d33f 175e 113f 8ad7 9dbe
000001f0: bf1c d43e eaaa 973f 9774 413e 97b8 a73e
00000200: 16c4 29bf 1104 c23e 9485 133e fa02 933e
00000210: a17c 633f d082 873e f38a 303f d2a3 453f
00000220: e648 833d e112 5a3f 693f de3f 33f5 693f
00000230: 25cd 733f 45fc 253f d562 2c3f de1b 95be
00000240: 6173 993e 0899 83bd 9cb6 233f 50c7 c2be
00000250: 44c5 783f 8895 803f 28eb a53e 7d7c 903e
00000260: 86af afbe 8bba a6be 9c85 463f e7de 233f
00000270: 3bdb 8dbd b4be 28bf 800b 8d3f c7f1 783e
00000280: bd6e fabd 2d26 1f3f 333a 513f ed72 c33e
00000290: 4a4c ef3e c290 16bf 8210 bc3e 17e8 5a3f
000002a0: 6f2b 803e b289 353f bb61 9f3f a833 5d3f
000002b0: 4542 8c3e 59db 49be 3464 213d a108 463f
000002c0: 4a60 433f 06f0 f7be c499 723f 46ce a83e
000002d0: 4003 963f 67f5 aa3f 6ab1 7f3e 4504 0cbf
000002e0: 2bfd 8b3f 2a15 22bf 825e 853f 5597 f53e
000002f0: fd4b e93e 781c 7a3f 6096 cd3f 5bc8 71be
00000300: 491c 8d3f d8be 893f 22b4 a23f 0cdc c93e
00000310: 842e 21be 036c b2bd 76ca 293f 5458 623d
00000320: 0160 1540 8170 503f 6b77 693e 7c09 4dbf
00000330: aa6e 4abf c8ec d7be 7e82 b63e 88ae 1f3f
00000340: d99c 523f 2ef6 45bf 5aa5 81bf f96e a03f
00000350: bc49 243d d0c8 873e e926 c73e c0b3 8b3e
00000360: f652 e0be 83c7 f23e 1b66 953f bb92 9c3f
00000370: f9ea cc3d 4676 b33f cc9b 03bf e433 bc3e
00000380: ba65 52be 96a1 5b3e e030 503e c716 873f
00000390: bae7 abbe 504f a4be 7c77 b53e f439 493e
000003a0: 3b57 e8be 6280 523f 9e4e 083f 1af2 733f
000003b0: 502d 3a3f 8c2d 863f c450 163f 0d02 423f
000003c0: 3fa6 303f 78dc 623f 7772 ffbe f490 2d3f
000003d0: 5e5d eb3e 4685 d63d f47c 813f b987 343f
000003e0: 56d7 933f 9429 bdbd d331 bf3e 4820 f13f
000003f0: af1d 433f 0aaf 8a3e 9ec1 50bd 72ca a83e

l1.bias f4 [8]
2.1814914 1.5445211 1.2550812 2.2632172 1.9441135 1.8484226 2.8165517 2.2975543
00000000: 8e9d 0b40 deb2 c53f 80a6 a03f 8dd8 1040
00000010: b6d8 f83f 1d99 ec3f 6242 3440 210b 1340

l2.weight f4 [8, 8]
2.3380961 -2.591632 3.8406637 4.308918 -1.3455002 1.8545167 2.6833456 4.3186383
2.5771585 4.51392 1.8420146 -1.5126475 3.82406 -1.2075558 1.2940695 0.6216463
4.0884023 2.7655606 -0.89148676 2.504447 1.6106607 3.311028 -1.9790075 2.633827
-1.9449738 3.6800468 -1.8020023 4.232842 4.7245646 -2.0159278 2.9059546 4.178737
-0.6281448 0.031974204 4.882359 -2.2850008 1.407167 3.1418214 2.0470073 3.7821202
2.4723327 1.8691322 2.6849718 3.1549294 -0.09149658 4.1290493 2.9313347 -3.3309765
4.8298974 0.28833532 -1.5037601 -1.1427258 -0.042271 -0.57295597 4.425707 1.2207872
0.6110175 -0.3949323 -1.8808223 0.10331215 3.154223 4.252709 1.651742 -0.12757178
00000000: 5ea3 1540 4cdd 25c0 6fcd 7540 a8e2 8940
00000010: 5a39 acbf ce60 ed3f efbb 2b40 4932 8a40
00000020: 2af0 2440 0872 9040 22c7 eb3f 6f9e c1bf
00000030: 66bd 7440 3091 9abf 12a4 a53f 3624 1f3f
00000040: 31d4 8240 f2fe 3040 7a38 64bf dc48 2040
00000050: 212a ce3f e2e7 5340 1e50 fdbf 9f90 2840
00000060: e7f4 f8bf e385 6b40 03a8 e6bf 7173 8740
00000070: a22f 9740 f604 01c0 29fb 3940 37b8 8540
00000080: 19ce 20bf 62f7 023d 493c 9c40 743d 12c0
00000090: 0c1e b43f 9a13 4940 2b02 0340 420e 7240
000000a0: b33a 1e40 b93f ef3f 94d6 2b40 5dea 4940
000000b0: 8f62 bbbd 2c21 8440 fd9a 3b40 b82e 55c0
000000c0: 858e 9a40 b0a0 933e 367b c0bf d744 92bf
000000d0: 5b24 2dbd 3ead 12bf 649f 8d40 c142 9c3f
000000e0: a56b 1c3f 9134 cabe c9be f0bf 5295 d33d
000000f0: cade 4940 3116 8840 486c d33f 2da2 02be

l2.bias f4 [8]
1.4987358 0.49980682 0.5279328 1.8789666 -0.28492284 0.43147078 1.6486405 0.23759292
00000000: 93d6 bf3f aee6 ff3e 9b26 073f fa81 f03f
00000010: 68e1 91be bde9 dc3e a706 d33f 8f4b 733e

l3.weight f4 [89, 8]
-0.5160688 -1.0603383 -0.07120205 -0.14594442 -0.8586724 -0.53129876 -0.87851626 -0.7672413
-0.3986174 -2.7600286 -0.38414946 -2.3306265 -0.77859145 0.44292054 0.3663953 0.64980006
-0.6611388 -0.18518148 0.05946129 -1.0171627 -1.1073097 -0.39776075 0.11020183 -1.7412903
-1.5671064 0.36875263 -0.040101662 0.060520787 -0.06951415 -1.0067221 -0.15426542 -3.3997037
0.475205 -0.19212088 -0.5057599 -3.2467837 0.8592356 -0.35242814 -1.0405387 -1.5750453
-3.573219 0.6862361 0.47981742 0.82093024 0.01775702 -2.871877 -0.3420524 -1.2574985
-0.06789902 -2.3115156 -1.0537599 0.09855496 -0.24956709 0.39923334 -3.5006828 0.46303782
-0.30564237 -1.6107924 -1.3617736 0.262129 -2.1457303 -0.28469133 0.29555637 -0.23873484
-0.7595525 -0.17554593 0.62211573 -0.102128066 -0.21509124 -3.665163 -0.7211684 -0.45647714
-0.35224125 -0.82365483 0.024829041 0.41695505 -5.3160133 -0.09137061 -0.8139399 0.036422126
0.72806644 -3.5056658 -1.954361 -1.8856604 0.844479 0.42102197 -0.58388966 -0.30789533
-0.3879281 -0.38089308 -0.14547251 -0.33532187 0.47311035 0.060767 -4.4612074 -1.0170858
0.42433295 -4.3523564 -0.8545166 -0.46144718 0.54784447 -0.32326418 -1.0105579 -0.30848566
-0.4701033 -0.28785834 0.082708105 0.8466128 -2.491799 -0.15157726 -3.8545864 -0.57309735
0.34345096 -1.1613626 -0.5988246 -0.17521879 0.5113291 -1.3135976 -2.1120172 -1.0705236
-0.6056283 0.419271 0.11009239 1.162075 -0.6573739 -4.1004663 -2.4722896 -0.9627877
0.71782446 -1.5663459 0.24012166 -0.38570118 -0.9562078 -0.52662957 -0.10476199 -4.657722
-0.711781 -0.34014156 -0.62264484 0.032941405 0.4938837 -4.392673 -0.48798272 0.5181244
0.066984884 -4.772907 -0.27540734 0.6628645 -2.8927317 0.5186422 -1.2609888 0.89849675
-0.7906711 -0.98630154 -0.3670397 -0.7456069 -2.5933342 0.5139299 -0.06873264 -0.16144203
-1.4232441 0.5882637 -0.14717016 -2.4706304 -0.34308416 0.14634413 0.11105526 -1.5817304
0.38196236 -1.3748684 -1.0653397 0.112222895 -0.16247717 -3.80846 0.79923105 -0.83316094
0.34954727 -0.43049183 -2.1805682 -0.27083313 -0.5949947 0.014347591 0.51836807 -3.6770382
-0.5444486 0.08423975 -1.4903094 0.71829075 -0.050145872 -0.43024355 -2.3343978 -1.7371974
-1.5196042 -0.5368544 -1.3356053 0.5016397 -0.7544868 -0.48271063 -0.6403944 -0.04396107
-1.1262169 -0.071795955 -0.58930826 0.73465717 -3.5859725 -0.108607195 0.35406873 -2.0781984
-0.14978431 0.0135369785 0.61276853 0.3866878 -0.8727288 -0.70292264 -2.1750813 -3.9957724
0.29366848 -0.3426587 -0.10662401 0.11236848 -2.9873455 0.4859761 -0.7202087 -3.9267843
0.8596651 -4.521502 0.32884 -0.5439978 -1.1253064 0.5171138 -3.0758 -0.48515382
0.5798616 -1.3293663 -0.49944332 1.091135 -0.48162052 -1.0590426 -2.2197003 -3.4925876
0.5656645 -4.744511 0.13305627 -0.03498744 0.6613499 0.0031817378 -0.9207284 -3.6250482
0.7702922 -1.0411707 -3.3278527 0.061829127 0.6827472 -0.07386596 -1.1123946 -2.679976
00000000: 161d 04bf 2ab9 87bf 61d2 91bd 7472 15be
00000010: f4d1 5bbf 3203 08bf 71e6 60bf ed69 44bf
00000020: 9417 ccbe 4fa4 30c0 3daf c4be fc28 15c0
00000030: c551 47bf 7bc6 e23e 2a98 bb3e 4c59 263f
00000040: 6440 29bf 37a0 3dbe ae8d 733d 6332 82bf
00000050: 53bc 8dbf 4ca7 cbbe 7fb1 e13d 9ae2 debf
00000060: f196 c8bf 25cd bc3e a441 24bd a5e4 773d
00000070: 6f5d 8ebd 45dc 80bf c1f7 1dbe bf94 59c0
00000080: 124e f33e 56bb 44be 7b79 01bf 4ecb 4fc0
00000090: ddf6 5b3f 7671 b4be 5f30 85bf 169b c9bf
000000a0: 9faf 64c0 2bad 2f3f a1aa f53e 7c28 523f
000000b0: 2c77 913c d5cc 37c0 7e21 afbe b6f5 a0bf
000000c0: a40e 8bbd dfef 13c0 9be1 86bf 2fd7 c93d
000000d0: 848e 7fbe 5068 cc3e 300b 60c0 4b13 ed3e
000000e0: 287d 9cbe 722e cebf 994e aebf c635 863e
000000f0: a553 09c0 10c3 91be 2a53 973e e876 74be
00000100: 0872 42bf 50c2 33be fa42 1f3f 8528 d1bd
00000110: e140 5cbe 0892 6ac0 7e9e 38bf 5fb7 e9be
00000120: f758 b4be 0bdb 52bf 4666 cb3c 227b d53e
00000130: c81c aac0 8420 bbbd 5e5e 50bf 5e2f 153d
00000140: 9062 3a3f d45c 60c0 8028 fabf 525d f1bf
00000150: c72f 583f 3190 d73e cb79 15bf 75a4 9dbe
00000160: 839e c6be 6b04 c3be bff6 14be 4faf abbe
00000170: 853b f23e d1e6 783d 36c2 8ec0 de2f 82bf
00000180: 2b42 d93e 8146 8bc0 9ac1 5abf ce42 ecbe
00000190: 893f 0c3f e282 a5be f659 81bf d5f1 9dbe
000001a0: 61b1 f0be 2b62 93be de62 a93d 9ebb 583f
000001b0: a379 1fc0 1237 1bbe 8bb1 76c0 82b6 12bf
000001c0: ced8 af3e 88a7 94bf 924c 19bf 8e6c 33be
000001d0: 77e6 023f f723 a8bf 4a2b 07c0 eb06 89bf
000001e0: 750a 1bbf b0aa d63e 1e78 e13d e0be 943f
000001f0: a849 28bf 0537 83c0 fe39 1ec0 4179 76bf
00000200: 58c3 373f 067e c8bf 74e2 753e a07a c5be
00000210: 09ca 74bf 32d1 06bf 748d d6bd 0f0c 95c0
00000220: 4837 36bf 0927 aebe a765 1fbf 91ed 063d
00000230: 53de fc3e c790 8cc0 dfd8 f9be cda3 043f
00000240: 5f2f 893d a7bb 98c0 3102 8dbe 7db1 293f
00000250: 8422 39c0 bcc5 043f 1568 a1bf e203 663f
00000260: 6c69 4abf 427e 7cbf a1ec bbbe 18e0 3ebf
00000270: 30f9 25c0 e990 033f b3c3 8cbd 0f51 25be
00000280: dd2c b6bf 7398 163f c6b3 16be cf1e 1ec0
00000290: baa8 afbe 3cdb 153e f170 e33d 2476 cabf
000002a0: 9290 c33e b0fb afbf 0d5d 88bf 1ed5 e53d
000002b0: 6a60 26be cfbd 73c0 689a 4c3f 094a 55bf
000002c0: dcf7 b23e 6d69 dcbe 6e8e 0bc0 a4aa 8abe
000002d0: 9351 18bf 2912 6b3c c5b3 043f 9854 6bc0
000002e0: fc60 0bbf e485 ac3d 75c2 bebf e7e1 373f
000002f0: c265 4dbd e248 dcbe c666 15c0 7c5c debf
00000300: 6482 c2bf 4a6f 09bf 1df5 aabf 766b 003f
00000310: 0c26 41bf d925 f7be e3f0 23bf 8610 34bd
00000320: e027 90bf c209 93bd e8dc 16bf 7e12 3c3f
00000330: 9380 65c0 736d debd 7f48 b53e 3401 05c0
00000340: 0f61 19be 34ca 5d3c 66de 1c3f f1fb c53e
00000350: 286b 5fbf bdf2 33bf 8834 0bc0 bcba 7fc0
00000360: b75b 963e f670 afbe b05d dabd 7221 e63d
00000370: ab30 3fc0 dcd1 f83e 995f 38bf 6f50 7bc0
00000380: 0313 5c3f 25b0 90c0 b75d a83e 7143 0bbf
00000390: 0a0a 90bf 9261 043f e8d9 44c0 1566 f8be
000003a0: cf71 143f ad28 aabf 09b7 ffbe 50aa 8b3f
000003b0: f796 f6be b58e 87bf 920f 0ec0 8e86 5fc0
000003c0: 64cf 103f 09d3 97c0 e73f 083e fd4e 0fbd
000003d0: 3a4e 293f b484 503b dbb4 6bbf ca00 68c0
000003e0: df31 453f 1545 85bf 8afb 54c0 8a40 7d3d
000003f0: 85c8 2e3f 0947 97bd f262 8ebf ba84 2bc0

l3.bias f4 [89]
-0.8781163 -0.7050282 0.049823504 -0.025180815 0.5802334 0.63497424 -0.14319144 -0.29577196
-0.0397129 -0.15456174 -0.12314482 -0.68258226 -0.730091 0.45766702 0.1194917 0.041728754
-0.012753 -0.47401807 0.6372469 -0.084962204 0.23145947 -0.09652877 -0.645367 -0.017992523
-0.68710744 0.099167295 -0.2071705 -0.22334832 0.27687693 0.24086481 0.4278026 -0.261068
0.27462533 0.4287806 0.021530112 0.48958126 0.23332241 0.21956386 -0.17424528 -0.2626346
0.43217164 0.23173003 0.48161748 0.04863037 0.40153572 0.28082073 0.1758558 0.065513
-1.3373857 -0.22336261 0.23486046 -0.47605965 0.19809633 -0.11221407 -0.106686376 -0.04487033
-0.708702 -0.3799185 -0.46621394 0.3274011 0.15267065 0.42799795 -0.36597633 -1.1502978
-0.06221359 0.28112483 0.2125565 0.39908898 0.23354083 -0.30848837 0.22267443 0.02002818
-0.26062512 0.14552535 -0.7612855 0.13164166 -0.033164877 0.16754395 -0.29467657 -0.0059461608
-0.19287892 0.036760982 0.2625336 0.21706128 0.19932939 0.22453013 -0.89778703 -0.39158094
0.56586367
00000000: 3bcc 60bf ba7c 34bf bb13 4c3d ff47 cebc
00000010: 2d8a 143f ac8d 223f c7a0 12be 6c6f 97be
00000020: fea9 22bd 6f45 1ebe 5a33 fcbd b6bd 2ebf
00000030: 3ee7 3abf 5553 ea3e 10b8 f43d c5eb 2a3d
00000040: f5f1 50bc 7fb2 f2be 9d22 233f aa00 aebd
00000050: b603 6d3e e0b0 c5bd c636 25bf 0e65 93bc
00000060: 46e6 2fbf 3918 cb3d 8124 54be 6cb5 64be
00000070: d0c2 8d3e 44a5 763e f108 db3e b4aa 85be
00000080: b19b 8c3e 2189 db3e eb5f b03c 65aa fa3e
00000090: 12ec 6e3e 59d5 603e 5b6d 32be 0b78 86be
000000a0: 9a45 dd3e a34a 6d3e 9196 f63e a430 473d
000000b0: 1796 cd3e bcc7 8f3e 8b13 343e ae2b 863d
000000c0: 742f abbf 2bb9 64be 437f 703e 17be f3be
000000d0: c4d9 4a3e 7ed0 e5bd 637e dabd f3c9 37bd
000000e0: 7f6d 35bf ad84 c2be 98b3 eebe 1ea1 a73e
000000f0: b255 1c3e 8c22 db3e 4061 bbbe f53c 93bf
00000100: add3 7ebd 98ef 8f3e 69a8 593e 6455 cc3e
00000110: 5425 6f3e 30f2 9dbe c404 643e 2312 a43c
00000120: a870 85be 9904 153e 9be3 42bf 12cd 063e
00000130: e5d7 07bd a490 2b3e d9df 96be 03d8 c2bb
00000140: 0d82 45be af92 163d ce6a 863e 5045 5e3e
00000150: 011d 4c3e 3aeb 653e 5fd5 65bf 4c7d c8be
00000160: 71dc 103f
